Project3/Sourcecode/saved_runs/best_model.pth (torch, 3558 bytes, 5 tensors)

fc1.weight f4 [8, 8]
0	0x3cb93658	0.022608921
1	0x3e66fbaf	0.22556947
2	0x3ea54564	0.32279503
3	0xbe8b2eb1	-0.2718406
4	0xbe7181d2	-0.23584679
5	0xbddfa521	-0.10920168
6	0xbe4e6a40	-0.20157719
7	0x3da82996	0.08211057
8	0xbc2e5218	-0.01063969
9	0x3e3822fc	0.17982095
10	0xbe79d2be	-0.24396798
11	0x3d387c1d	0.04504024
12	0xbe6b2f15	-0.22967179
13	0x3e15332d	0.14570303
14	0x3e9a6c96	0.3016097
15	0xbd86163b	-0.06547209
16	0xbe0d6fdc	-0.13812202
17	0x3e94bb0d	0.29048958
18	0x3e4094f8	0.18806827
19	0x3da0667b	0.078320466
20	0x3e8e16c0	0.27751732
21	0x3e9464f9	0.28983286
22	0x3def3841	0.116806515
23	0x3e020e2a	0.12700716
24	0xbe45ccb9	-0.19316377
25	0x3b16f993	0.0023036941
26	0xbe4e19b8	-0.20126998
27	0x3e586a08	0.21134198
28	0xbe98adbe	-0.29820055
29	0xbe9b727b	-0.3036078
30	0xbe12dad5	-0.1434129
31	0xbe9bf3e6	-0.30459517
32	0x3eae80c4	0.34082615
33	0x3df46a49	0.11934335
34	0x3ded29c6	0.11580233
35	0xbd432e9b	-0.04765187
36	0x3d15d8f2	0.03658385
37	0xbe6623b9	-0.22474565
38	0xbdd05dcb	-0.101741396
39	0x3d1a4612	0.03766448
40	0xbea41a3b	-0.32051262
41	0xbcf45b8c	-0.02982881
42	0xbcb051fd	-0.02152347
43	0x3e3bf1fc	0.18354028
44	0x3eb06ef8	0.34459662
45	0x3c44651e	0.011986999
46	0xbd09b4e4	-0.033619776
47	0x3eab1b94	0.33419478
48	0xbe40c06f	-0.18823408
49	0x3dcbdb35	0.0995392
50	0x3de7c3ce	0.11316644
51	0xbe5c0f2a	-0.2149016
52	0xbe2f8b50	-0.17142987
53	0x3d4ed45e	0.050495498
54	0xbe240b5f	-0.16019963
55	0xbba46eca	-0.00501809
56	0x3eab4d59	0.3345745
57	0xbcfda7f2	-0.030963872
58	0x3e12f80a	0.14352432
59	0x3e75b524	0.23994881
60	0xbe6d9f3a	-0.23205271
61	0xbc2f85c9	-0.010713049
62	0x3bc8658f	0.0061156224
63	0xbe99a1eb	-0.30006346

fc1.bias f4 [8]
0	0xbe676c0a	-0.22599807
1	0x3e8cbf21	0.2748957
2	0xbea075c7	-0.31339857
3	0x3e3f5dd1	0.18688132
4	0xbe63b851	-0.2223828
5	0xbd887558	-0.066630065
6	0xbea0d248	-0.31410432
7	0x3dbaa297	0.09113043

fc2.weight f4 [16, 8]
0	0x3e6dd43b	0.23225491
1	0xbd572c02	-0.052532203
2	0xbe1ec0b6	-0.15503201
3	0xbe6982da	-0.22803822
4	0x3ea2e0c3	0.31812105
5	0xbe04191e	-0.12900206
6	0x3e55e31f	0.20887421
7	0xbe2897e0	-0.16464186
8	0x3d1197cb	0.03554515
9	0x3ce26517	0.027636094
10	0xbc5b01fd	-0.013367173
11	0xbe984ff1	-0.2974849
12	0x3e0851d4	0.13312465
13	0x3e25281e	0.16128585
14	0xbdd0dbcd	-0.10198174
15	0x3e98124f	0.29701468
16	0xbc891582	-0.016733889
17	0xbe27e843	-0.16397195
18	0xbdef1e11	-0.116756566
19	0xbd4674a0	-0.048451066
20	0x3da3d273	0.079991244
21	0xbe890fa0	-0.26769733
22	0xbe4c649d	-0.19960256
23	0xbe7fd255	-0.24982579
24	0x3c36a3a9	0.011147418
25	0xbd96cf08	-0.07363707
26	0xbeb0dc82	-0.34543234
27	0x3d816f48	0.06320053
28	0xbe4a1470	-0.19734359
29	0x3ca2a207	0.019852651
30	0xbd3009d4	-0.042978123
31	0xbe0c27e4	-0.13687092
32	0xbe80ed52	-0.2518106
33	0x3e1b9202	0.15192416
34	0xbdc30df0	-0.09524143
35	0x3e7a2cb5	0.24431117
36	0x3ea69ecf	0.32543036
37	0x3d490911	0.049080912
38	0xbda11da4	-0.078669816
39	0x3d2e19c3	0.042505037
40	0x3e99189b	0.29901585
41	0xbe883c30	-0.2660842
42	0x3e2d5c1f	0.16929673
43	0xbe97b29b	-0.29628453
44	0x3e8e8015	0.27832094
45	0x3e568210	0.20948052
46	0x3e9c09dd	0.30476275
47	0xbd53983a	-0.051658846
48	0x3e4c3a92	0.19944218
49	0xbe91e1a5	-0.28492466
50	0xbe91e6ec	-0.28496492
51	0xbe872649	-0.26396397
52	0x3e81dd17	0.2536399
53	0x3e19c718	0.15017354
54	0xbde8dbe6	-0.11370067
55	0x3e6e0614	0.23244506
56	0xbe494ec6	-0.19658956
57	0x3e34c061	0.17651512
58	0x3e3bf587	0.1835538
59	0x3dc4e4c2	0.096139446
60	0xbe721a6a	-0.23642889
61	0x3e95d6a6	0.29265326
62	0x3e58bd9c	0.2116608
63	0xbd9cb9fc	-0.07652661
64	0x3eb222ee	0.34792274
65	0xbe5bade0	-0.21453047
66	0x3e1e0f94	0.1543563
67	0x3e5539bd	0.20822807
68	0xbdebe8ad	-0.11518989
69	0xbe920971	-0.28522828
70	0xbde114be	-0.109902844
71	0xbe8f8720	-0.2803278
72	0xbe824d55	-0.25449625
73	0xbd86f0df	-0.06588911
74	0xbde0ed28	-0.10982734
75	0xbdcf08ac	-0.10109076
76	0x3e36d222	0.17853597
77	0x3e95a428	0.29226804
78	0x3c55cdcc	0.013049554
79	0xbd23b011	-0.039962832
80	0x3dad5e4d	0.08465252
81	0xbd3e07d9	-0.046394203
82	0x3cb6a319	0.022294568
83	0x3e503314	0.20331985
84	0xbe108b94	-0.14115745
85	0x3e111ab8	0.14170349
86	0x3d299da4	0.041410103
87	0x3c2ec532	0.010667132
88	0x3e91f763	0.28509054
89	0xbdcebfe2	-0.100951925
90	0xbe5d830d	-0.21632023
91	0xbe818307	-0.25295278
92	0x3d98716b	0.07443508
93	0x3d5fbd93	0.05462415
94	0xbe432234	-0.19056016
95	0xbe039eb5	-0.1285351
96	0xbe8e1624	-0.27751267
97	0x3c253c4d	0.010085178
98	0xbdc279f5	-0.09495918
99	0xbe1a1b31	-0.15049435
100	0x3e791940	0.24326038
101	0x3db8fc07	0.090324454
102	0xbe90a423	-0.28250226
103	0x3e819405	0.25308242
104	0x3e9fb6f2	0.31194264
105	0xbe391ce7	-0.18077432
106	0x3e8e6cae	0.2781729
107	0xbda1eea4	-0.07906845
108	0x3e9fc73c	0.3120669
109	0x3e8ab092	0.27087837
110	0x3e1de14d	0.15417977
111	0x3e997a53	0.29976138
112	0x3e573e0f	0.21019767
113	0xbd635761	-0.055503253
114	0x3e5113a1	0.20417644
115	0x3ea04814	0.3130499
116	0x3e4215af	0.18953584
117	0xbc6a0c96	-0.014285227
118	0xbe606238	-0.21912467
119	0x3e56e687	0.20986377
120	0xbd9dbb00	-0.07701683
121	0xbe92ba96	-0.2865798
122	0x3e6ea30d	0.23304386
123	0xbe034b2c	-0.12821645
124	0x3e75fce0	0.24022245
125	0xbd7e2305	-0.062045116
126	0xbde22b99	-0.11043472
127	0x3e8ffd56	0.28122967

fc2.bias f4 [16]
0	0xbe885b08	-0.2663195
1	0xbdf9c3ef	-0.121955745
2	0x3ea87eb3	0.32909164
3	0xbe89cce8	-0.26914144
4	0xbe030675	-0.12795432
5	0xbe5d5f6d	-0.21618433
6	0x3e7ab1f3	0.24481945
7	0xbe025b98	-0.12730253
8	0xbe2f6cf4	-0.17131406
9	0xbe418023	-0.18896537
10	0xbd2fde07	-0.04293635
11	0xbcb27216	-0.021782916
12	0xbe023cc6	-0.12718496
13	0xbeb35064	-0.3502227
14	0x3d7e635c	0.062106475
15	0xbe57a0f6	-0.21057495

output.weight f4 [1, 16]
0	0x3e369924	0.17831856
1	0xbd2fcedf	-0.042921897
2	0x3e256559	0.16151942
3	0xbbccfa8c	-0.0062554535
4	0xbde35d96	-0.111018345
5	0x3e086ad8	0.13322008
6	0xbe5a7466	-0.21333465
7	0xbe429e23	-0.19005637
8	0x3bbde6d9	0.0057953415
9	0x3c874728	0.016513422
10	0x3e068e7a	0.13140288
11	0x3e39d874	0.18148977
12	0xbdf8a718	-0.121412456
13	0xbbcc63bf	-0.0062374766
14	0xbe5b9187	-0.21442233
15	0x3e4e4524	0.20143563
